…
ternal/local_xla/xla/stream_executor/cuda/cuda_fft.cc:607] Unable to register cuFFT factory: Attempting to register factory for plugin cuFFT when one has already been registered\n2024-07-12 17:47:57.815532: E external/local_xla/xla/stream_executor/cuda/cuda_blas.cc:1515] Unable to register cuBLAS factory: Attempting to register factory for plugin cuBLAS when one has already been registered\nOverriding model.yaml nc=80 with nc=4\n\n                   from  n    params  module                                       arguments                     \n  0                  -1  1      1856  ultralytics.nn.modules.conv.Conv             [3, 64, 3, 2]                 \n  1                  -1  1     73984  ultralytics.nn.modules.conv.Conv             [64, 128, 3, 2]               \n  2                  -1  3    279808  ultralytics.nn.modules.block.C2f             [128, 128, 3, True]           \n  3                  -1  1    295424  ultralytics.nn.modules.conv.Conv             [128, 256, 3, 2]              \n  4                  -1  6   2101248  ultralytics.nn.modules.block.C2f             [256, 256, 6, True]           \n  5                  -1  1   1180672  ultralytics.nn.modules.conv.Conv             [256, 512, 3, 2]              \n  6                  -1  6   8396800  ultralytics.nn.modules.block.C2f             [512, 512, 6, True]           \n  7                  -1  1   2360320  ultralytics.nn.modules.conv.Conv             [512, 512, 3, 2]              \n  8                  -1  3   4461568  ultralytics.nn.modules.block.C2f             [512, 512, 3, True]           \n  9                  -1  1    656896  ultralytics.nn.modules.block.SPPF            [512, 512, 5]                 \n 10                  -1  1         0  torch.nn.modules.upsampling.Upsample         [None, 2, 'nearest']          \n 11             [-1, 6]  1         0  ultralytics.nn.modules.conv.Concat           [1]                           \n 12                  -1  3   4723712  ultralytics.nn.modules.block.C2f             [1024, 512, 3]                \n 13                  -1  1         0  torch.nn.modules.upsampling.Upsample         [None, 2, 'nearest']          \n 14             [-1, 4]  1         0  ultralytics.nn.modules.conv.Concat           [1]                           \n 15                  -1  3   1247744  ultralytics.nn.modules.block.C2f             [768, 256, 3]                 \n 16                  -1  1    590336  ultralytics.nn.modules.conv.Conv             [256, 256, 3, 2]              \n 17            [-1, 12]  1         0  ultralytics.nn.modules.conv.Concat           [1]                           \n 18                  -1  3   4592640  ultralytics.nn.modules.block.C2f             [768, 512, 3]                 \n 19                  -1  1   2360320  ultralytics.nn.modules.conv.Conv             [512, 512, 3, 2]              \n 20             [-1, 9]  1         0  ultralytics.nn.modules.conv.Concat           [1]                           \n 21                  -1  3   4723712  ultralytics.nn.modules.block.C2f             [1024, 512, 3]                \n 22        [15, 18, 21]  1   5585884  ultralytics.nn.modules.head.Detect           [4, [256, 512, 512]]          \nModel summary: 365 layers, 43632924 parameters, 43632908 gradients, 165.4 GFLOPs\n\nTransferred 589/595 items from pretrained weights\n\u001b[34m\u001b[1mDDP:\u001b[0m debug command /opt/conda/bin/python3.10 -m torch.distributed.run --nproc_per_node 2 --master_port 51275 /root/.config/Ultralytics/DDP/_temp_8si55hi4133851157708608.py\nUltralytics YOLOv8.0.196 ðŸš€ Pyt
…
ternal/local_xla/xla/stream_executor/cuda/cuda_fft.cc:607] Unable to register cuFFT factory: Attempting to register factory for plugin cuFFT when one has already been registered\n2024-07-12 18:08:35.749577: E external/local_xla/xla/stream_executor/cuda/cuda_blas.cc:1515] Unable to register cuBLAS factory: Attempting to register factory for plugin cuBLAS when one has already been registered\nOverriding model.yaml nc=4 with nc=80\n\n                   from  n    params  module                                       arguments                     \n  0                  -1  1      1856  ultralytics.nn.modules.conv.Conv             [3, 64, 3, 2]                 \n  1                  -1  1     73984  ultralytics.nn.modules.conv.Conv             [64, 128, 3, 2]               \n  2                  -1  3    279808  ultralytics.nn.modules.block.C2f             [128, 128, 3, True]           \n  3                  -1  1    295424  ultralytics.nn.modules.conv.Conv             [128, 256, 3, 2]              \n  4                  -1  6   2101248  ultralytics.nn.modules.block.C2f             [256, 256, 6, True]           \n  5                  -1  1   1180672  ultralytics.nn.modules.conv.Conv             [256, 512, 3, 2]              \n  6                  -1  6   8396800  ultralytics.nn.modules.block.C2f             [512, 512, 6, True]           \n  7                  -1  1   2360320  ultralytics.nn.modules.conv.Conv             [512, 512, 3, 2]              \n  8                  -1  3   4461568  ultralytics.nn.modules.block.C2f             [512, 512, 3, True]           \n  9                  -1  1    656896  ultralytics.nn.modules.block.SPPF            [512, 512, 5]                 \n 10                  -1  1         0  torch.nn.modules.upsampling.Upsample         [None, 2, 'nearest']          \n 11             [-1, 6]  1         0  ultralytics.nn.modules.conv.Concat           [1]                           \n 12                  -1  3   4723712  ultralytics.nn.modules.block.C2f             [1024, 512, 3]                \n 13                  -1  1         0  torch.nn.modules.upsampling.Upsample         [None, 2, 'nearest']          \n 14             [-1, 4]  1         0  ultralytics.nn.modules.conv.Concat           [1]                           \n 15                  -1  3   1247744  ultralytics.nn.modules.block.C2f             [768, 256, 3]                 \n 16                  -1  1    590336  ultralytics.nn.modules.conv.Conv             [256, 256, 3, 2]              \n 17            [-1, 12]  1         0  ultralytics.nn.modules.conv.Concat           [1]                           \n 18                  -1  3   4592640  ultralytics.nn.modules.block.C2f             [768, 512, 3]                 \n 19                  -1  1   2360320  ultralytics.nn.modules.conv.Conv             [512, 512, 3, 2]              \n 20             [-1, 9]  1         0  ultralytics.nn.modules.conv.Concat           [1]                           \n 21                  -1  3   4723712  ultralytics.nn.modules.block.C2f             [1024, 512, 3]                \n 22        [15, 18, 21]  1   5644480  ultralytics.nn.modules.head.Detect           [80, [256, 512, 512]]         \nModel summary: 365 layers, 43691520 parameters, 43691504 gradients, 165.7 GFLOPs\n\nTransferred 589/595 items from pretrained weights\n\u001b[34m\u001b[1mDDP:\u001b[0m debug command /opt/conda/bin/python3.10 -m torch.distributed.run --nproc_per_node 2 --master_port 44123 /root/.config/Ultralytics/DDP/_temp_wngntpi5132492617991984.py\nUltralytics YOLOv8.0.196 ðŸš€ Pyt
…
